.dart_tool/chrome-device/Default/optimization_guide_prediction_model_downloads/d9e2fa4f-64c2-4c83-8576-d76b4503c32a/model.tflite (tflite, 410364 bytes, 166 tensors)

context_transformer_0/bottleneck_input/norm/add f4 [32]
00000000: 6d63 5a3c d470 5fbd 3c02 193d 2a57 823d
00000010: 6816 83bd c8f4 32bd 82c4 0fbd b708 1c3d
00000020: 5269 aebd 2b06 71bd 0a1f 03bc 1950 28bc
00000030: f977 563b 7c63 0f3e ab5c 81bd 5050 043d
00000040: 6aa6 6d3d 1427 9c3d d093 8abd 324a 93bd
00000050: 78d0 3fbd 8972 21bc ccfa 1fbd c298 a63d
00000060: 899b b73c be30 3a3d ee7c 03be d88a 24bb
00000070: ae44 cbbc fc33 2a3e dc91 f1bd e1e5 55be
0.013329369 -0.05455096 0.037355646 0.063642815 -0.06400758 -0.043690473 -0.035099514 0.03809425
-0.08516182 -0.058843773 -0.008003006 -0.010273003 0.0032725318 0.14002794 -0.06316503 0.032303154
0.058020033 0.07624641 -0.06766474 -0.07191886 -0.04682967 -0.009853967 -0.039057538 0.08134605
0.022413032 0.04545664 -0.12840626 -0.0025107171 -0.024813022 0.16621393 -0.117953986 -0.20888473

context_transformer_1/bottleneck_input/norm/add f4 [32]
00000000: 0b2a 443d 1cc0 1fbe 157c 6dbd 3ee4 63bd
00000010: 12c4 183d d86b 5b3e 70a4 4e3d c591 c93c
00000020: 88db fe3c 941d 1ebd c4b1 363e 6c81 1b3c
00000030: 3b67 fc3c e0a3 abbe af87 8fbd f833 8abc
00000040: ec81 c7bd de6d 2dbd b2ef babc 366b d33c
00000050: 5024 953b d675 46be 3c8b 533d ce52 8e3c
00000060: 8372 033d 40a3 b13d 8a14 a13d 80cd 07be
00000070: 40d3 2a3d 388c a63d 6991 6bbd 821c 27be
0.047891658 -0.15600628 -0.057979662 -0.05563759 0.037296362 0.21427858 0.05044979 0.024605641
0.03111054 -0.038602427 0.1784125 0.009491306 0.030810943 -0.33523464 -0.070083015 -0.016870484
-0.097415775 -0.042341106 -0.022819374 0.025807958 0.004551448 -0.19380888 0.051646456 0.017373469
0.03209163 0.086737156 0.07865246 -0.13261986 0.04170537 0.08132213 -0.05751172 -0.16319469

mention_transformer_0/bottleneck_input/norm/add f4 [32]
00000000: 5b22 6dbe 3407 6a3c 5bd3 8b3d ac6a b03d
00000010: e088 0dbe 68b3 33bd 7a9b 113e 245c 29be
00000020: b4de b6bd d277 8b3d 685d 6abe e09d 8f3e
00000030: 89ff 563b ec57 1f3e 1534 bf3d 5972 013d
00000040: a0af 51be a6b2 1a3e 02e8 5dbb febc dabd
00000050: 7294 673d 3ed0 723c ab4f a43c 4931 9dbd
00000060: 091a c9bc 2c95 37bd 8690 bebd d2b9 ca3d
00000070: 132a c13c e248 07be 86d6 43be d4d5 26be
-0.23157637 0.014283944 0.06827422 0.08614096 -0.13821745 -0.043872267 0.14219466 -0.16539055
-0.08929196 0.06809963 -0.22887194 0.28050137 0.003280612 0.15560883 0.09336106 0.03160319
-0.20477152 0.15107211 -0.0033860211 -0.10680579 0.056538053 0.014820157 0.02005752 -0.07675416
-0.024548547 -0.044819996 -0.093049094 0.09898724 0.023579633 -0.13211396 -0.19124803 -0.16292506

mention_transformer_1/bottleneck_input/norm/add f4 [32]
00000000: 9121 0b3e f5bb 143f e463 c5bd 4b09 48be
00000010: dc34 113e 88b4 283e 066a 4b3e 4037 513d
00000020: b57f 85bd 95dc b93e 0e1e 44be e879 61bd
00000030: 595b edbd 4a42 143e 582b b93d e016 d5be
00000040: 555f 01bc 3619 923e e75c 163e dc5d b7be
00000050: f1fd ba3e d860 0d3e 0448 02be 7452 a53e
00000060: d9a9 b33d fe07 42be 6490 eebe e1c1 9a3e
00000070: 12df 45bd 7660 d1bd e4ef b7bc 2eba 85be
0.13587023 0.580993 -0.09638193 -0.19534795 0.1418032 0.16475117 0.19864663 0.05107808
-0.06518499 0.36301103 -0.1915209 -0.0550479 -0.11589689 0.14478412 0.0904147 -0.41619015
-0.007896264 0.2853486 0.14683877 -0.35813797 0.36521867 0.13806474 -0.12722784 0.3228947
0.0877263 -0.18948361 -0.46594536 0.30226043 -0.04830844 -0.102234766 -0.022453256 -0.26118606

context_transformer_0/attention/value/add;context_transformer_0/attention/value/einsum/Einsum;context_transformer_0/attention/value/add/ReadVariableOp/resource f4 [32]
00000000: bdad 82bd 8c35 d73b 2bd9 53bc 9be9 d33c
00000010: 4f9c e63c 270d 94bb 03cc 6d3d 3be1 a33d
00000020: 60ee 91bc 01d2 4a3d 0647 433d 42c6 47bd
00000030: 0e03 173d 0f56 7b3d dca4 0fbd f37b 013c
00000040: 2e98 5ebd 723d 003c 49bd 033d f44c 6a3c
00000050: 6d88 1d3d 9aa6 6d3d c449 213d 7d2d 003d
00000060: 4e52 6fbc 1e99 b73c 00f1 58ba 9c0d 48bd
00000070: 1832 733d 5302 533a 62f8 673c 8116 4cbc
-0.06380794 0.0065676626 -0.012930195 0.025868228 0.028150706 -0.0045181694 0.05805589 0.08001944
-0.017813861 0.04951668 0.047675155 -0.048773058 0.036868148 0.06136137 -0.03506933 0.007903087
-0.05434435 0.00782715 0.03216294 0.014300574 0.038460184 0.05802021 0.03937699 0.03129338
-0.014607025 0.02241188 -0.0008275658 -0.048841104 0.059373945 0.00080493576 0.01415834 -0.012456537

context_transformer_0/bottleneck_input/norm/mul f4 [32, 32]
00000000: 82ad f83e 8619 1abe fd04 6dbc 58fb 153b
00000010: 5b06 68be d2e2 b1bd 6eca d0bc 2f30 cc3e
00000020: 24fd 753e 2bad ffbd 6c3a 51be 73af ce3e
00000030: 06a0 2cbe 1296 aabe 5906 0fbe 3fe5 ffbd
00000040: 9532 95bd 12ea a73e e798 4c3f 9d27 4f3d
00000050: 40e9 76be 2c4d 623e daeb 7fbe 4d1b 0bbd
00000060: 128d e03e b2e4 62bd 270c 0e3e 7e40 f1bd
00000070: 7ba8 22bf 0d7d 313e 4c94 e53c ef16 12bf
00000080: 351b b93d c3be febd bcad a73c 511a 973c
00000090: 1db8 8e3d 48f2 b13d 9027 4fbd 2bb4 96bd
000000a0: bc62 403e 8b63 f2bc 31b4 26bc 53e7 a73e
000000b0: 6536 c33d cd04 00be 124e d03d ca4c 15be
000000c0: 315e 0a3d ed94 98bd a23a ccbd 288e 893e
000000d0: 8e4f da3d 6f0d 1c3e c2f6 1e3e 058b 4f3e
000000e0: afb0 e93d 0e26 acbd 6b73 603d 1d54 dfbc
000000f0: ae26 98be 8f43 333e 4ecf 8dbd e37c 0b3d
00000100: a14e ae3e 1848 5d3d 1840 323d 215b 7ebd
00000110: 5b18 08bc 7953 853e 8a00 acbe 9235 4b3d
00000120: 0c64 c4bd b5a1 3abe 1179 9fbe 2fc7 773e
00000130: 3ef5 d03d b9d5 543e e56b 07be 3a13 e4be
00000140: 5082 bdbd 1a20 d3bd e417 a4bd 7f23 853d
00000150: 18d6 333e a850 2b3e 7bd7 f7bd 0464 87be
00000160: 3e9c 98be 5954 733d ce71 21be 071d 163e
00000170: 1b77 f63d 678f aa3e a849 dfbd 3d0b 6b3f
00000180: 4029 053f 2b36 313e 0d8b f8bd 4f6b 1c3d
00000190: fdc7 a6be f399 03bd 7f58 933e af7f a03c
000001a0: 8539 ac3e 9bc4 6ebe ac04 f63c 5c25 203e
000001b0: 1251 e9be 2c65 3e3e 6d9f 84bd 1dd7 723d
000001c0: 458e 05bd 375d 9d3d ca2b 8c3e 32cd afbd
000001d0: 2261 58be 6541 00bf a795 b03c 2bc8 d0bd
000001e0: e2fc ba3e b6f9 b1be 32f7 53bd 9f5b b5bd
000001f0: 1165 03be e12e 09bf 3298 933b 28fa de3c
00000200: fa37 943e 6f80 173e 63f3 5b3d 2b89 42bd
00000210: 4cb1 87bc e320 203d 88a3 1dbe 107f 94bd
00000220: f1c2 393d 8411 91bd e2dc ca3c 8283 a23d
00000230: 993f 853d 48d3 f6bd 8f92 a0bd 6619 8bbe
00000240: c54f 3a3e 3204 b0bd 1437 fb3b a613 613d
00000250: c9fe 88bd 6281 cf3c dc0a 3bbd c389 463d
00000260: 68d9 043e 4a90 1ebe 1b63 f93d c746 993e
00000270: a547 723d 92a6 2d3d 6abc 803d 8f3a 203b
00000280: 5155 8cbe 373a e6bd d934 efbe d09c bcbd
00000290: 6d60 bebd 9505 093f 344e d13e f9b6 46be
000002a0: bfdb f43e d321 b2bd 62e1 9bbe 8eba 873d
000002b0: 53af 913c 40fd b6bd 2a6a 393b 2ef0 82bd
000002c0: 3cd7 893d a9ce 86be efda 11bf 3509 b73d
000002d0: d63e 053e 22c3 de3e 068a ca3d bf7f 603c
000002e0: 2ccf 993e 3269 45bb ddb6 0e3e e7c4 dfbd
000002f0: 50c6 3b3e 9a26 e0bd 2710 d0bc de33 c23d
00000300: 6191 253e dbd1 70bd b8c9 763d fddb a3bb
00000310: 1067 11be 7275 893d aa8a a83d 924d c0bd
00000320: b055 873e f54a bebd ffeb 2c3d eca5 943d
00000330: 306e 2c3d 9baf 623d 3ba2 a13e ccd3 04be
00000340: 9afa c8be f3b5 87be 165a 16be 8369 903e
00000350: f9e0 af3d 8655 a43e b644 5c3e bc92 813d
00000360: e921 263e fa0c 07be be94 aebe 45c3 1dbe
00000370: 0006 8fbd 3668 77bd 0e3a 13bd b44a 1c3e
00000380: 2d0a 7b3e c8b1 d43d 43a7 5abd 47db 2ebd
00000390: a8c2 013d 509c b93e 2886 1a3d 981b 20bd
000003a0: c84b 613d 1053 a3bd 2111 87be 8fdd 1b3e
000003b0: 9403 debd b79e 80be 744c 773b 7e62 b1be
000003c0: 9919 773e 7af4 cc3d 109a 44be c4db 2ebd
000003d0: 338e e5bd ca81 323e 9208 22be f18d 5e3e
000003e0: 118a 06be 46e8 dc3c 5f46 8d3c 948e 65bd
000003f0: 8950 053e c2c6 ca3e 24b3 303d 5eca b3bc
0.48569876 -0.15048799 -0.014466521 0.0022885408 -0.22658674 -0.08685841 -0.025487151 0.3988051
0.24022347 -0.12484201 -0.20432442 0.40368232 -0.16857919 -0.3331762 -0.13967265 -0.12494897
-0.072850384 0.3279577 0.7992081 0.050574888 -0.24112415 0.22099751 -0.24992314 -0.033961583
0.43857628 -0.055393882 0.13871823 -0.11779879 -0.6353833 0.1733286 0.028024815 -0.57066244
0.090383925 -0.12438729 0.020468585 0.018445166 0.069687106 0.086887896 -0.05057484 -0.07358583
0.18787664 -0.029588481 -0.010174797 0.32793674 0.09531859 -0.12501831 0.10171141 -0.14580074
0.033781234 -0.0745028 -0.09972121 0.2686627 0.10659705 0.152395 0.15523818 0.20267875
0.11410653 -0.08405696 0.05479757 -0.027261788 -0.2971701 0.1750624 -0.06924306 0.034054648
0.34044364 0.054023832 0.043518156 -0.062098626 -0.008306588 0.26040247 -0.3359416 0.049611636
-0.09589395 -0.18225749 -0.31147054 0.24197076 0.10203026 0.20784654 -0.13224752 -0.4454592
-0.09253371 -0.10308857 -0.08012369 0.06500911 0.17562139 0.16729987 -0.121016465 -0.26443493
-0.29806703 0.059406612 -0.1576607 0.1465951 0.12034436 0.33312532 -0.10902721 0.91814023
0.5201607 0.1730582 -0.12135897 0.038188275 -0.32574454 -0.03212924 0.28778455 0.019592134
0.33637634 -0.23317187 0.030031525 0.15639251 -0.45569664 0.18593282 -0.064757206 0.05928718
-0.032606382 0.07683795 0.27377158 -0.0858406 -0.21130803 -0.50099784 0.021555735 -0.10194429
0.3652106 -0.34760827 -0.051749416 -0.08855366 -0.12831523 -0.53587157 0.004504227 0.027218893
0.28948957 0.14795087 0.05369891 -0.047494095 -0.016564034 0.039093863 -0.15394413 -0.07250798
0.045351926 -0.07083419 0.024763528 0.079352394 0.06506271 -0.120520175 -0.07840454 -0.27167815
0.18194492 -0.0859455 0.007666478 0.05495038 -0.066892214 0.02533025 -0.045664653 0.048471224
0.12973559 -0.1548473 0.12177106 0.2993681 0.059150357 0.042395182 0.06285937 0.0024448966
-0.2740884 -0.11241572 -0.46720007 -0.09209597 -0.092957355 0.5352414 0.40879977 -0.19405736
0.47823903 -0.08697858 -0.3044539 0.06627379 0.017783796 -0.08935022 0.0028292038 -0.06393467
0.06730506 -0.26329544 -0.5697469 0.08937303 0.13012251 0.4350825 0.09889607 0.013702332
0.30040872 -0.0030122516 0.13936944 -0.10926228 0.18337369 -0.10944863 -0.025398327 0.09482549
0.16168739 -0.058793884 0.060250968 -0.00500059 -0.14199471 0.06711854 0.08229573 -0.09389795
0.26432562 -0.09291641 0.04221725 0.072582096 0.04209727 0.05534325 0.31569085 -0.12971419
-0.39253694 -0.26506004 -0.14682803 0.282055 0.08587832 0.320965 0.21510586 0.063268155
0.16223873 -0.13188544 -0.34097856 -0.1540652 -0.06983566 -0.060402118 -0.035944037 0.15262872
0.245156 0.103854716 -0.05338217 -0.042689588 0.03167978 0.3625207 0.037725598 -0.039088815
0.05500391 -0.07974827 -0.26380256 0.15221237 -0.10840526 -0.2512109 0.0037734779 -0.34645456
0.24130858 0.10007568 -0.19199395 -0.042690054 -0.11208763 0.17432323 -0.15823582 0.21733834
-0.13138606 0.026966225 0.01724547 -0.056044176 0.13019003 0.39604765 0.04313959 -0.021947082

context_transformer_0/kq_shared_bottleneck/norm/mul;context_transformer_0/kq_shared_bottleneck/norm/add;context_transformer_0/attention/key/einsum/Einsum;context_transformer_0/attention/key/add;context_transformer_0/attention/value/einsum/Einsum;context_transformer_0/attention/key/add/ReadVariableOp/resource f4 [32]
00000000: 8da7 19be a494 5bbe a9e1 95be adf2 4f3e
00000010: 2ccd 363e c204 9dbe 0cb9 fcbd d70f c0be
00000020: a506 7c3d bc3b 613d 8c56 913d f6d0 273d
00000030: 49f2 acbd 9d67 80bc 18c0 9f3c a141 753d
00000040: b8f4 2c3e 34be 023e 9545 49be 0dca d63c
00000050: f480 24be 8b51 ff3d 2961 c83d 3586 75be
00000060: dfc3 44bd 9612 dfbc 6832 75bc 8f45 0abb
00000070: b8ff 54bc e799 9dbc a199 9bbc 79a8 ac3d
-0.15005322 -0.2144342 -0.29273728 0.20307417 0.17851704 -0.30667692 -0.123399824 -0.37512085
0.061529774 0.054988608 0.07096586 0.040970765 -0.0844465 -0.015674407 0.019500777 0.05987704
0.16890228 0.12767869 -0.1965545 0.026219392 -0.16064817 0.12466725 0.09784157 -0.23976977
-0.04803836 -0.027230542 -0.014965631 -0.002109859 -0.013000421 -0.019238425 -0.018994154 0.08430571

context_transformer_0/kq_shared_bottleneck/norm/mul;context_transformer_0/kq_shared_bottleneck/norm/add;context_transformer_0/attention/key/einsum/Einsum;context_transformer_0/attention/key/add;context_transformer_0/attention/value/einsum/Einsum;context_transformer_0/attention/key/add/ReadVariableOp/resource1 f4 [32, 32]
00000000: 67a6 08be 03b3 223e 438a 9cbd 2b51 9a3d
00000010: f66f 933b 1429 853e 4a1f 7a3e 1a12 713e
00000020: 533e 1cbe 37b9 483d 0d6c 90be 2712 a0bd
00000030: 0a01 90be a9fe 193e b378 333e 8d4a 5abe
00000040: fed2 983d ac96 5fbe 66a0 28be 77a7 44be
00000050: b7d6 983e f07c 38be b1e0 e8bd dd3b 723e
00000060: 8f11 ae3e 858c c4be 294d 9cbe 7bd6 a83c
00000070: 7b87 473e 6f9a 7d3e bcca cc3d b214 523e
00000080: 7152 ecbd 2d38 803e be92 ad3b c143 943e
00000090: f913 90bd f16d 2c3e cd42 183e 60f4 e23c
000000a0: 5f62 0e3e e523 03be db36 c8bd 1a35 793e
000000b0: 7626 46be a3a7 4a3e a192 753e 2aaa abbd
000000c0: fb62 963e 78e5 60bd 53d7 d0bd b344 b83e
000000d0: 88a8 5c3d e0bb 45be 3b60 41be 8416 b23e
000000e0: 021c f43d 74fe 8cbe b262 c0be 4196 0b3e
000000f0: 4b19 163e 41c2 10bd 48ae 1c3e 3734 bf3c
00000100: 708f a1bd b03a 553e 7393 513d 04a8 ca3e
00000110: 0b7d 27be 2692 3d3d 1f46 363e a86c 13bc
00000120: e217 c83d 6aeb 943d 0814 c23d 2819 243e
00000130: 39d8 05be 2811 a03e 35a6 0c3e 3c5c 123d
00000140: ac61 903e 26e4 08be 07c9 00be 8a95 c53e
00000150: 6393 cabd 2a3f 4fbd f6cd 4cbe 5240 1b3e
00000160: a9f7 b93d c183 93be a489 9abe 86bb 5a3e
00000170: 2899 293e 4417 56bd 3db6 8f3e 2f29 d8bd
00000180: e0ea b43d 7bf7 2ebe e3ce a53d 6d64 54be
00000190: cee7 cc3d b102 4bbe 98f7 69be 4d7a 2ebe
000001a0: d568 453e 053d cebd b6e0 753e abf3 9abb
000001b0: 7d1e 6f3e 78b8 47be a4b0 27be e7dd 0e3e
000001c0: dee9 3abe c43a 753e 1be5 2b3e 3adc e73d
000001d0: a42c 58be ecc6 4c3e c087 083e aa78 36be
000001e0: f6f1 80be 7d37 a13e 894d 8c3e 9ae2 aabd
000001f0: c748 55be 00d7 15be 0646 0ebe 9123 24be
00000200: 1827 f53c 2ba8 32be 4fed c83d 9369 5dbe
00000210: b603 143e 1314 bfbd 85fc 3dbe e2bb 06be
00000220: cfa5 4d3e d636 4fbe 9af9 293d eb8d 36bd
00000230: 59a3 423e df6c 3fbe 579e d3bd a864 203d
00000240: e937 20be bfc0 903e 3c9d ca3d 4d88 f93c
00000250: c09a 76bd 83c6 fb3c f5c8 f53d e52a 24be
00000260: 9671 49be c83a ac3e 49b3 273e b9ae 71bd
00000270: eb64 21be 9042 aebd 60e7 10be 4a61 cbbd
00000280: beb5 5dbe 9c20 8e3d 630c 923d f8cf bf3e
00000290: 9c8a 17be f9a1 9fbd 9d6a 853e 1738 de3d
000002a0: 7f88 efbd 8d27 093f 0181 983e 9d85 54be
000002b0: bba3 44be c7b8 ac3e a87e 303d 2cad 323e
000002c0: eff4 ee3d 4140 dcbe 1057 4ebe 709b 133e
000002d0: 1cd7 44be 5cee 123e d23e 76bd 8734 59be
000002e0: 2336 053e 6e21 d1be 4d0e 3abe 574b d63d
000002f0: 1937 503e 59b6 a13d 1ec5 a73e bbde 3bbd
00000300: 511f 46be c1ca 2d3e c07b 1d3e 4885 1b3e
00000310: f136 753d 09c0 613e 0f78 403e 7bc6 723d
00000320: 62e3 ac3e 1c8e 65be 8cfd 1fbd d7e4 443e
00000330: e8a9 28be beef 213e 29dd 403e 2129 c2bd
00000340: 3213 193e c822 d0bd f967 aabd 409a b23e
00000350: 13ad c73d 3ee5 33be 3d9c b2bd c0ac 873e
00000360: 60fe 3b3e cbb0 babe 9877 d8be 6cdd 5b3d
00000370: 0073 003e 9d17 de3d 8ec3 5f3d 1d21 4e3c
00000380: 72be 17bf 7f29 1ebd 41c1 c03e 9a95 183f
00000390: 3d5d 2d3d 27e7 5cbb 85e9 113d c009 44bd
000003a0: 8fe4 263e d6c6 5b3e eba9 8f3e 06ba 26be
000003b0: 2dac 213b 9099 f83d b2fb 5e3d 923b 4e3d
000003c0: 1726 19bd 810c b5be 29c5 aebe dc81 c53e
000003d0: 651a 2ebe 5047 98bd b754 a0bb 32ab a6be
000003e0: 6d38 893d de6c 89be fcc9 dcbe 7306 043f
000003f0: 64cb 2d3c 3d47 873d 61bb f83e ed80 0fbe
-0.13344727 0.158886 -0.07643559 0.07535013 0.004499431 0.26007903 0.24425998 0.23542061
-0.1525815 0.04900476 -0.28207436 -0.07815962 -0.28125793 0.15038551 0.17526512 -0.21317501
0.074621186 -0.2183482 -0.16467437 -0.19204508 0.29851314 -0.1801641 -0.113709815 0.23655649
0.3399777 -0.38388458 -0.3052762 0.020610085 0.19485275 0.24765943 0.09999606 0.20515707
-0.11539162 0.2504286 0.005297034 0.28957942 -0.070350595 0.16838814 0.14869232 0.027704418
0.13904713 -0.12806661 -0.09776088 0.24336663 -0.19350609 0.19790511 0.23981716 -0.083820656
0.2937239 -0.05490634 -0.1019732 0.35989913 0.05387166 -0.1930995 -0.18884365 0.34782803
0.119194046 -0.27537882 -0.375753 0.13631536 0.14658086 -0.035341505 0.15300858 0.023340328
-0.07888687 0.20823169 0.05116601 0.3958131 -0.16356294 0.046281956 0.17800187 -0.008998074
0.0977018 0.07271464 0.09476477 0.16025221 -0.13070764 0.3126309 0.13735278 0.035732493
0.28199518 -0.13368282 -0.12576686 0.38590652 -0.09891393 -0.050597347 -0.20000443 0.15161255
0.090804406 -0.28811458 -0.30183136 0.21360597 0.1656233 -0.05226828 0.28068724 -0.1055473
0.08833861 -0.17086594 0.08096101 -0.20741434 0.10005151 -0.19825245 -0.22848356 -0.17038842
0.19278271 -0.10070232 0.24011502 -0.0047287545 0.23351474 -0.19503963 -0.16375977 0.13951837
-0.18253276 0.23948199 0.16786616 0.11321302 -0.21110779 0.19997758 0.13333035 -0.17819467
-0.25184602 0.31487647 0.27402905 -0.08344002 -0.20828544 -0.14632797 -0.138939 -0.16029193
0.029925868 -0.17446963 0.09810888 -0.21622305 0.1445454 -0.09330001 -0.1855336 -0.13157609
0.20082782 -0.20235762 0.041497804 -0.044568937 0.19007625 -0.18693875 -0.10332935 0.039158493
-0.15646328 0.28272054 0.09893271 0.030460501 -0.060206175 0.030734306 0.1200122 -0.16031988
-0.19672236 0.33638597 0.16376986 -0.05900452 -0.15761153 -0.085087895 -0.14150763 -0.09930666
-0.2165136 0.069398135 0.07131269 0.37463355 -0.14798969 -0.07794566 0.26057902 0.10850542
-0.116959564 0.53575975 0.29785922 -0.20754094 -0.19203083 0.33734724 0.04308954 0.17448872
0.11667811 -0.43017772 -0.20150399 0.14414763 -0.19222683 0.1434874 -0.060118504 -0.21211444
0.13008933 -0.40845817 -0.18169518 0.10463589 0.20333518 0.07896108 0.32767576 -0.04586671
-0.19347884 0.16971876 0.15379238 0.15187562 0.05986685 0.22045912 0.18795799 0.059271317
0.3376723 -0.22417492 -0.03906016 0.1922792 -0.16471064 0.1581411 0.18834366 -0.09480501
0.14948729 -0.10162884 -0.083206125 0.34883308 0.09749808 -0.17567918 -0.08721206 0.26498985
0.18358755 -0.36463007 -0.42278743 0.05367796 0.12543869 0.108443476 0.054629855 0.012581137
-0.5927497 -0.038613793 0.3764744 0.59603274 0.042325247 -0.0033707113 0.035623092 -0.04786086
0.16298126 0.21462569 0.28059325 -0.162819 0.0024669275 0.12138665 0.054439254 0.05034978
-0.03738984 -0.35361102 -0.34134796 0.38575637 -0.17002256 -0.07435477 -0.0048929113 -0.32552487
0.067002155 -0.26840872 -0.43122852 0.5157234 0.010607574 0.066053845 0.4858046 -0.14014025

context_transformer_0/kq_shared_bottleneck/norm/mul;context_transformer_0/kq_shared_bottleneck/norm/add;context_transformer_0/attention/query/einsum/Einsum;context_transformer_0/attention/query/add;context_transformer_0/attention/value/einsum/Einsum;context_transformer_0/attention/query/add/ReadVariableOp/resource;context_transformer_0/attention/Mul;context_transformer_0/attention/Mul/y f4 [32]
00000000: 0d72 693e 5da5 5e3e 7553 4c3e 3dc2 61be
00000010: e774 3fbe 394d 413e 2a3d 4b3e 6299 d43d
00000020: acca 2ebe d137 173e 4393 fdbd 2a05 7a3d
00000030: a5b2 0f3e a50e 123e dbe9 e93d bbb1 8fbd
00000040: 03bf 143e 38f9 16bd e092 f13c 4059 0abd
00000050: 91c7 13be 1da2 35bc 0a72 84bd 0ab6 63bd
00000060: fb3d 92bd 0012 f93d 48f4 233e 4486 cd3d
00000070: 00d5 f2bd f712 1f3e b5f0 0e3e d9c7 77bd
0.22797413 0.21742769 0.19953711 -0.22046752 -0.18696938 0.18877114 0.19847551 0.10380818
-0.170695 0.14767386 -0.123816036 0.06104008 0.14032991 0.14263399 0.114215575 -0.07016321
0.1452599 -0.036858767 0.02948898 -0.03377652 -0.14431597 -0.011086014 -0.06467064 -0.055593528
-0.07140728 0.12161636 0.16011155 0.10035375 -0.11857033 0.15534578 0.1395901 -0.060493324

context_transformer_0/kq_shared_bottleneck/norm/mul;context_transformer_0/kq_shared_bottleneck/norm/add;context_transformer_0/attention/query/einsum/Einsum;context_transformer_0/attention/query/add;context_transformer_0/attention/value/einsum/Einsum;context_transformer_0/attention/query/add/ReadVariableOp/resource;context_transformer_0/attention/Mul;context_transformer_0/attention/Mul/y1 f4 [32, 32]
00000000: 9dee 71bd 418e 44bd 2055 5ebc 732e 49be
00000010: 8d11 953c bd5c 803d 26b7 903d 8b62 b93d
00000020: 6462 b53d 0a7f c9bc 7be7 233d 6bef 76ba
00000030: 4049 96bd a6e2 16bd d196 97bc 6cb8 ba3c
00000040: 8115 a7bc 2bfb 0ebd 7bcf 113d 300b 27bd
00000050: cb3c 20bc 5b0e cbbb 880b b23c 2049 95ba
00000060: f6f8 243c 4d12 08be fdfd 993d 772a 32be
00000070: 9f5e 183d 768c 1e3e ea4d fabd bf7c a13b
00000080: 788e 9b3c 3940 2dbd 2040 f93c 2828 5dbd
00000090: 2edc 023d f6b3 313c 0736 a8bc 7ed4 81bc
000000a0: c3e0 163e 1eb3 a5bd 0da8 a03d 2936 a03d
000000b0: 2115 aebc bcb5 a3bd aa3e 4dbd f611 853d
000000c0: 4aca 113d 2549 933c 0d0e a13d 65b3 bd3d
000000d0: 2e8f 0fbd 88fd c2bc f8ec 1b3c 55a9 743d
000000e0: e43c 4dbd 824a aabd f274 bd3d db09 bfbc
000000f0: e6d7 06bd 33c0 913d 7c13 a6bd 61ec 80bd
00000100: 2e86 cb3c 9e21 1abd 8631 f5bc 893c 093d
00000110: c231 36bd d56c 02bc 1001 87bd dd4f 32bd
00000120: e82b 253d 0193 0dbd f4f4 ab3d e292 0e3d
00000130: 2635 853c 42c3 90bd 816e 96bd b20f 983d
00000140: b194 0e3d 9022 00bd 8111 8d3d 5e65 763d
00000150: 448c 38bd 149f c1bc 4e12 223c 2d70 833d
00000160: 3dd6 87bd 508d aabd 26f7 083e 803d 763d
00000170: 6f38 6fbd 6a6b a63d 58fb 1ebc b6a7 27bd
00000180: 5d77 1d3d 8bcd 2f3d 77bd d73c 81f6 223e
00000190: 8b85 df3b 5dd3 1abd 2504 1ebd 30eb 71bd
000001a0: aca8 8fbd cadf 143c c283 83bd 3e90 ab3b
000001b0: cb44 313d 8460 103d 2f3f 2a3d e949 28bd
000001c0: 25b3 8b3c ec60 5e3d f517 6bbd 95a9 053d
000001d0: 4067 273d e556 6bbc 5003 a1bc a6be debb
000001e0: c0e8 c43c 9145 f33d 75e5 a5bd 5c47 0c3e
000001f0: 6700 f3bc a534 02be 91e2 e03d eee2 9a3c
00000200: 34ce ad3b 00d6 d63c 8824 483d 7996 943d
00000210: be09 4d3d 4f25 54bc dc5f 9dbc f99a 36bd
00000220: e47a 75bc 5643 433c d733 50bd 2a2f d4bb
00000230: e986 a33c 64b7 8b3c 48bf 1f3d e259 44bd
00000240: e9b8 35bb c781 3c3d 1e63 13bd c22b ff3c
00000250: 9894 e83c 1461 94bc 43aa 43bc 3f26 d3bc
00000260: ae5c a83c f255 0b3e cacb d7bd 2436 e63d
00000270: 175b 95bc 3596 cebd 1139 b23d 931b e53b
00000280: e311 a9bc 70f9 17bd 5fe0 c6bd 7b57 823d
00000290: 8808 f2bd 24c2 aa3c dd65 51bd 23eb b63c
000002a0: d0ce f2bd ba6b a53c 4a12 3a3d 6f57 72bd
000002b0: 7e73 6a3c 8c56 3ebd dc46 9fbd 4ef4 fb3c
000002c0: b9cd 27bd 775a 08be 43e6 1f3b c11b 00be
000002d0: 9dc6 ac3a aac1 51bc e4ea 333d e3bb 333d
000002e0: 6311 0fbd da63 09be ca66 ef3d 2228 5b3d
000002f0: bcad 0fbd 6f24 093e d816 da3c 275f 8b3d
00000300: d4cb 9fbc 8814 a3bc 315d 623d 5593 5fbd
00000310: f864 a03d 759b 393d 1d2d 803c 5690 5f3c
00000320: 913f 1e3e 0138 efbd eb2a d13c 6427 8f3d
00000330: 0e26 3abd 0c6a 9bbd d944 acbc daac 833c
00000340: 8290 ba3c bdce 873b 127d 0e3d 96df c53d
00000350: 08c0 7d3d 8cd2 d9bd 79d9 e1bb 0d6f b03d
00000360: bc78 b9bb d6d9 5dbd dab0 4e3d d2f0 913c
00000370: 2dcc eebc e776 be3d 1df1 69bd 387e 01bc
00000380: 8343 07be 7bf1 a9bd 91ef 5e3d 8c98 203e
00000390: 14e3 dc3c b79d c13c 785a 20be 399e d6bd
000003a0: e9af 41bc 173e e0bc f75d 0d3d dbe1 fcbd
000003b0: 1081 8f3d ef66 d2bd e70f 96bd 7e5e 8f3c
000003c0: 7889 dbbd ed0a 69be 666a b93a e370 88bd
000003d0: f0ac 1e3c b536 9abd 9300 883d 21eb 09bd
000003e0: d1e9 5fbd 0bd0 d8bd 0d26 773d f282 6d3e
000003f0: 0ab7 dabd 3f4f 3c3e b53e f33d 9654 463c
-0.05906545 -0.047987226 -0.0135701 -0.19646625 0.018196845 0.062676884 0.07066183 0.09051999
0.08856657 -0.02459671 0.04001568 -0.00094198313 -0.0733819 -0.036837243 -0.018504532 0.022793017
-0.020395996 -0.0349075 0.03559826 -0.040782154 -0.009780119 -0.0061967797 0.021734014 -0.0011389591
0.010069123 -0.13288231 0.075191475 -0.17399012 0.037199613 0.15483269 -0.12221892 0.004928201
0.018988833 -0.042297576 0.030426085 -0.053993374 0.03194826 0.010846129 -0.020533575 -0.015848394
0.14734177 -0.080908045 0.07844553 0.0782283 -0.02125031 -0.079936475 -0.05010859 0.064975664
0.03559331 0.017979214 0.07864008 0.092627324 -0.035048656 -0.023802534 0.009516947 0.0597318
-0.050106898 -0.083149925 0.09250821 -0.02332013 -0.03292074 0.07116737 -0.08109185 -0.06295086
0.024844255 -0.037629716 -0.029930841 0.033504996 -0.044481046 -0.007960518 -0.065919995 -0.043533195
0.040325075 -0.034564022 0.083963305 0.034808047 0.016260695 -0.070684925 -0.07345296 0.07424869
0.034809772 -0.03128296 0.06888104 0.060155265 -0.045055643 -0.023635425 0.0098920595 0.0641788
-0.066326596 -0.083277345 0.1337553 0.060117245 -0.05840343 0.08125956 -0.00970348 -0.040931426
0.03844391 0.04292063 0.026335461 0.15914346 0.0068213395 -0.037799228 -0.03857817 -0.059062183
-0.070145935 0.009086559 -0.06421615 0.005235701 0.043278497 0.035248294 0.041564163 -0.04108611
0.017053196 0.05429165 -0.057395894 0.03263243 0.04086995 -0.014363979 -0.0196549 -0.0067976294
0.024036765 0.11878503 -0.08100406 0.13699096 -0.029663278 -0.12715395 0.10980714 0.018907037
0.0053041223 0.02622509 0.048862964 0.07255263 0.05005812 -0.012948348 -0.019210748 -0.044581387
-0.014982913 0.01191791 -0.05083069 -0.006475349 0.019961791 0.01705522 0.03900078 -0.04793728
-0.0027728623 0.046022203 -0.035983197 0.031148795 0.028391168 -0.018112697 -0.011942449 -0.025775073
0.020552006 0.13607004 -0.105369166 0.11240795 -0.018231912 -0.100872435 0.08702291 0.0069918125
-0.020638412 -0.037103117 -0.09710764 0.06364342 -0.118180335 0.020844527 -0.051122535 0.022328919
-0.118558526 0.02019297 0.045427598 -0.059165414 0.014309762 -0.046469256 -0.07777187 0.030756142
-0.040967677 -0.1331576 0.0024398721 -0.12510587 0.001318175 -0.012802521 0.04392518 0.043880355
-0.03492869 -0.13416997 0.11689527 0.05350507 -0.035077795 0.13392805 0.02662222 0.06805258
-0.019506373 -0.019907251 0.055264656 -0.054583866 0.07831758 0.04531427 0.015646512 0.013645252
0.15453936 -0.11680604 0.02553316 0.06989935 -0.045446448 -0.07588586 -0.021028923 0.016073633
0.022773985 0.004144518 0.034787245 0.09661786 0.061950713 -0.10635862 -0.00689238 0.08614931
-0.0056601446 -0.054162823 0.050461628 0.017815027 -0.029150093 0.093000226 -0.05711471 -0.007903628
-0.13209347 -0.08298012 0.054427687 0.15683192 0.026963748 0.023634775 -0.15659511 -0.10479397
-0.011821725 -0.027373357 0.03451344 -0.12347766 0.070070386 -0.10273539 -0.07327252 0.017501112
-0.107195795 -0.22758074 0.0014146089 -0.066621564 0.009684786 -0.07529966 0.066407345 -0.033671502
-0.054666344 -0.10586556 0.060339022 0.23194483 -0.10679443 0.18389605 0.11877195 0.012105128

context_transformer_0/ffn_layer_0/intermediate_dense/einsum/Einsum;context_transformer_0/ffn_layer_0/intermediate_dense/Relu;context_transformer_0/ffn_layer_0/intermediate_dense/add f4 [32]
00000000: 607a e3be b43f 2bbe 26bf 80be d7c8 adbe
00000010: 0c1e 0bbe a2b7 70be f919 01be ebc9 98be
00000020: 0544 b4be ca47 86be 6397 4cbe ac07 a9be
00000030: 4617 46be 6fa6 1dbe 11d9 8bbe d1a6 aabe
00000040: feea 4dbe 7ab1 5abe d400 35be c9cc cdbe
00000050: 3eed d3bd d93e 17be 085d 46be f040 4bbe
00000060: bdc8 e2bd 648a 92be b51c 8cbe ec5b 2cbe
00000070: 197d e3bc 94b9 36be aada cdbd 7248 a2be
-0.44429302 -0.1672352 -0.25145835 -0.3394229 -0.1358568 -0.2350755 -0.12607564 -0.2984155
-0.35208145 -0.26226646 -0.19979624 -0.33013666 -0.19344816 -0.1539552 -0.27314046 -0.33330396
-0.20109174 -0.21356764 -0.17676097 -0.401953 -0.10347985 -0.14770068 -0.19371426 -0.1984899
-0.11073444 -0.2862121 -0.27365652 -0.1683194 -0.027769612 -0.1784423 -0.100514725 -0.31695896

context_transformer_0/attention/norm/mul;context_transformer_0/attention/norm/add;context_transformer_0/ffn_layer_0/intermediate_dense/einsum/Einsum;context_transformer_0/ffn_layer_0/intermediate_dense/Relu;context_transformer_0/ffn_layer_0/intermediate_dense/add f4 [32, 32]
00000000: e452 c8bd c4b2 023e 62e3 40be 93ae 52bc
00000010: 5997 95bd 97f2 b03d 4cf5 e0be 0da6 013e
00000020: af47 103e dd54 673d 5cbc 96bd 7ad5 0d3e
00000030: 1138 ccbd 10df 84be eabf f53d f273 3abd
00000040: b07d a9bd a568 e1bd 876d 683e 8f92 80bd
00000050: 12aa 983d f16a 7cbe 6c56 8dbe b6d9 173d
00000060: 6047 cf3d 6996 84bd 9c72 a13e d43b b33c
00000070: 75e8 50bd 8db2 b5be f4aa 483d ac4e 083e
00000080: 4d14 c43d 1a2a e6bd 15ee 44bd d9af 303e
00000090: 5f86 96be c3cf 093e 00d3 313e 29e1 c13e
000000a0: 77f8 593c 083c 6dbc e429 47be 9740 7ebd
000000b0: ca00 f03d 7fe1 85be 1d29 37be 9226 da3e
000000c0: 0cdf fdbd b0ad 9abd adec aa3d d7c4 12be
000000d0: 7663 19bd fb3b 803e 6bc1 d7bd 122b 763d
000000e0: 705d 80bd 7166 82bd 9469 fa3d aeb2 15bd
000000f0: 7601 fc3d f70d f3bd ba83 0fbe f17c 86bc
00000100: 87d1 60bd 9ceb 79be eb75 fd3b 263a c9be
00000110: ba5e 223e ae24 c6bd e1f9 e7bb 3ed9 0dbe
00000120: 7387 8e3d 3deb fa3d ed16 f4be b4fb d2bd
00000130: 9d93 06be 94be 09bd aaa4 f43e 413d 453e
00000140: eb66 7d3d cd67 333e a598 843e 4156 53be
00000150: 6bd1 1e3d 904f 7cbd 9134 963d 0806 ccbd
00000160: 8563 92bd 0d2c cabd e16c 463e 9f27 c4bd
00000170: 9ec8 0abb c973 9d3d 57fe 98bd feae 713e
00000180: 379d c83d 6646 6b3e e2a2 953e 219e 093e
00000190: 4734 883e 9b9e bbbd a604 f73c 8369 a03d
000001a0: faff babc 3d7b 043e 978a 893e 2d67 6ebe
000001b0: 2e82 12be 4444 143e 79b3 6a3e e4aa 0ebe
000001c0: 043f c53c 6db5 a73e 7c8a ee3d 096b 05be
000001d0: a68e 39be 44ad 3fbe 7fc2 553d 887c 99be
000001e0: f547 fb3c 0773 4dbe 722c acbc 0f04 4dbd
000001f0: 04c5 fa3d 7b63 98bd 9e73 213d a971 ec3d
00000200: 6112 9fbe 3b2d 5fbd 2a85 8e3e 096b 0dbe
00000210: 8aff 06be e2a3 45be 931c 4f3e 41bc 5fbd
00000220: 929a 093c 7568 61be ba84 013c 6bb0 9d3e
00000230: cfec 24be 2adb 0b3e 49ed 8b3d ab28 873e
00000240: 9b21 6abe d15f 193d ad9d b93e cdf5 ecbd
00000250: 1a9b 0bbd 0d35 fbbd 9f9e 9dbe e7d9 403d
00000260: 162f 863c 5083 c8be 0e98 863e cffb 273e
00000270: 7f08 be3d 8653 a33d e387 4ebc 8c49 c53d
00000280: 2e35 c0be 296a 80bd 8af3 823e 0766 9dbe
00000290: 887e c63d 5825 99be efc3 593d f681 82bc
000002a0: 02f3 02be 90c4 363e 78d6 613e 5da4 a63e
000002b0: 2b8c 36bb db4b d5bb 0d03 8bbe c074 22be
000002c0: 7bb7 14be b57d 6c3e ad78 0d3f 84c4 f43c
000002d0: 2bfb e03d e7c5 473e 2ae7 02bd eea1 b5bd
000002e0: 60bc 983e daa3 2a3e 8cac 223e 6fdd 983d
000002f0: 0ce8 093e 1043 293d 8b8b 093e 6f3d f5bc
00000300: 406e 323e 4c73 8f3d 4914 02be 3393 8d3d
00000310: 5b80 403d 6fd9 363e 1a61 803e 9489 36be
00000320: 773f 91be d244 cf3d 6c72 56be 9e97 08be
00000330: 9180 86bd 73e9 67be a8dd 24be a02e 60be
00000340: 6e79 6a3e 0a51 e8be 1522 05be 446a 33bd
00000350: 0911 0fbb 6600 edbc 3b30 9e3e 36da 913e
00000360: 1219 80bd 7776 c23e c2b0 c33d 2541 f0bd
00000370: 99ef c53b ac08 abbc 7012 233e ba54 fd3d
00000380: 7f3d 80be e6c8 0c3e eec6 27be bffa 14be
00000390: ef72 2b3d 2430 30bd dabe 1abe 1f08 a6bd
000003a0: 702e 07be a6c1 84be 6f54 0e3d 5edd 19be
000003b0: 36a2 b9bd 2642 4cbe a666 8a3e 498c fc3d
000003c0: 0309 85bd da42 99be 1aa3 a53d 0056 bebd
000003d0: 3848 003d 7610 cd3b 402f 32bd 290b 503e
000003e0: 0d00 bbbd 074b a53d 7f3f 723d dbc6 523e
000003f0: e18f e23d 2395 e0be 67b0 9e3d 3a07 183e
-0.09781435 0.12763506 -0.1883674 -0.012859005 -0.07304258 0.0864002 -0.43937147 0.12661
0.14089845 0.056477416 -0.073601454 0.13850966 -0.09971631 -0.25951433 0.11999495 -0.04552073
-0.08275926 -0.110062875 0.22698031 -0.06277954 0.07454313 -0.2465017 -0.27604997 0.03707286
0.101210356 -0.06474001 0.31532753 0.021879114 -0.05100294 -0.35487786 0.04899116 0.13311261
0.095741846 -0.11238499 -0.048078615 0.1725458 -0.29399392 0.13458161 0.17365646 0.37867096
0.013303868 -0.014479645 -0.19449574 -0.062073316 0.117189005 -0.26148602 -0.17886777 0.42607552
-0.123960584 -0.075526595 0.083459236 -0.14332901 -0.03744837 0.2504576 -0.105349384 0.06009967
-0.06267822 -0.063671954 0.12227169 -0.036547355 0.12304966 -0.11867898 -0.14015093 -0.016416999
-0.05488732 -0.24406284 0.007735004 -0.39302176 0.15856448 -0.09674965 -0.0070793484 -0.13852403
0.06959429 0.122518994 -0.4767374 -0.10301915 -0.13142247 -0.033629015 0.4778188 0.19261648
0.06186573 0.17520066 0.2589771 -0.20638372 0.038773935 -0.061599314 0.07334245 -0.09962088
-0.07147888 -0.09871683 0.19377472 -0.095778696 -0.0021176706 0.076881 -0.074703865 0.2360191
0.09795611 0.22976074 0.29225832 0.13439228 0.26602384 -0.09161111 0.030153584 0.07832625
-0.022827137 0.12937637 0.26863548 -0.23281546 -0.14307472 0.14479166 0.22920026 -0.13932377
0.0240779 0.32755604 0.116475075 -0.13029112 -0.18120822 -0.1871844 0.05218744 -0.29977822
0.03067396 -0.2006341 -0.021017287 -0.0500527 0.12244609 -0.074408494 0.0394169 0.115451165
-0.3106871 -0.054486495 0.2783597 -0.13810362 -0.13183418 -0.19300798 0.20225744 -0.054622892
0.008398669 -0.22012503 0.00790518 0.3079866 -0.1610596 0.13657823 0.06832368 0.26398215
-0.22864382 0.037444893 0.3625311 -0.1157032 -0.034083463 -0.12265978 -0.3078508 0.047082808
0.016379874 -0.39162683 0.26287884 0.16404651 0.09278964 0.07974915 -0.01260564 0.096331686
-0.37540573 -0.062702484 0.2557643 -0.30741903 0.09692103 -0.29911304 0.053165372 -0.01593111
-0.12788013 0.1784842 0.2205447 0.32547274 -0.0027854543 -0.006509287 -0.27150765 -0.15864849
-0.14523117 0.23094828 0.5526226 0.029878862 0.109854065 0.19509088 -0.031958736 -0.08868776
0.2983122 0.16664067 0.15886134 0.0746411 0.13467425 0.04132372 0.13432138 -0.02993652
0.1742487 0.07004413 -0.1270305 0.06912842 0.04699741 0.17856382 0.25074083 -0.1782592
-0.28368732 0.10120548 -0.20942086 -0.13339087 -0.06567491 -0.22647648 -0.1610018 -0.21892786
0.22897884 -0.45374328 -0.13001283 -0.043802515 -0.0021830222 -0.028930854 0.30896172 0.28486794
-0.06254782 0.37981007 0.09555198 -0.11731175 0.006040525 -0.020878159 0.15925002 0.12369676
-0.25046918 0.13748512 -0.1638448 -0.14548777 0.041857656 -0.04301466 -0.15111867 -0.08107018
-0.13201308 -0.25928992 0.03474849 -0.15025851 -0.090641424 -0.19947109 0.2703144 0.12331445
-0.064958595 -0.29933816 0.0808775 -0.09293747 0.031318873 0.006258066 -0.043502092 0.20316757
-0.09130869 0.08070951 0.059142586 0.2058367 0.11062599 -0.43863782 0.0774849 0.14846507

context_transformer_0/ffn_layer_1/intermediate_dense/einsum/Einsum;context_transformer_0/ffn_layer_1/intermediate_dense/Relu;context_transformer_0/ffn_layer_1/intermediate_dense/add f4 [32]
00000000: 8f5a bfbd ca22 af3d cbc0 4abd e496 9bbc
00000010: 099b 5cbe 2e93 0dbe 9fed 45be 320b 59be
00000020: 5229 89be f363 31be 1959 bbbd 0734 00be
00000030: 44e3 8dbe 7c13 77bd 3e40 1abe ee88 3dbd
00000040: b34c a9be 527a c6bd 39e0 51be 91e9 60be
00000050: b1d3 b6be 0d98 0ebe ba37 fdbd 78e3 73be
00000060: 5c65 9ebd 49af 5fbe 9f5d b3be fd4c 6ebe
00000070: b0ee 8dbe 6737 1abe 9095 a6be 20eb c1bd
-0.093434446 0.08551557 -0.049500268 -0.018992849 -0.21543516 -0.13825676 -0.19328927 -0.21195677
-0.26789337 -0.17323284 -0.091478534 -0.12519847 -0.27712452 -0.060321316 -0.15063569 -0.046273164
-0.3306633 -0.096912995 -0.2049569 -0.21964099 -0.35708383 -0.1392519 -0.123641446 -0.23817241
-0.077341765 -0.2184421 -0.35032365 -0.23271556 -0.27721167 -0.15060197 -0.32535982 -0.09468675

context_transformer_0/ffn_layer_0/norm/mul;context_transformer_0/ffn_layer_0/norm/add;context_transformer_0/ffn_layer_1/intermediate_dense/einsum/Einsum;context_transformer_0/ffn_layer_1/intermediate_dense/Relu;context_transformer_0/ffn_layer_1/intermediate_dense/add f4 [32, 32]
00000000: 95ce abbd fa3c b53c a68c a93e 9709 5fbe
00000010: 6e6b dd3d 1890 bcbd 59b2 4d3e 1e08 1f3e
00000020: 5e4f 633e af21 18bd 97d3 1e3e d2e6 4f3e
00000030: 0656 113e 4663 87bd cc85 1e3f 5ce4 85be
00000040: 73b2 13bd 0893 4f3e 0e26 a8bd 23c8 263e
00000050: 9356 e43c 8fab acbb 9286 863e b269 12be
00000060: 7ea1 75be fb3f 9d3e d24a 34be 55c7 623e
00000070: eba7 483d 60f0 953c eb83 b7bd 4722 343e
00000080: 61dd f83d 64fb 5a3e 17b8 f9bd d97d 3c3d
00000090: 5b9e 9dbd 7967 b3bd bb26 133d 3188 ecbd
000000a0: ea6b a8bc 590e 5f3e 7245 173e 4450 133e
000000b0: 43f6 1dbd 3763 55bd f377 dbbd 5b9e 78be
000000c0: 806f 90bd 5add fbbe 91dc c93e 88b5 8cbb
000000d0: 001d 903e 1146 e7bc c0ca d6bd 473a 05be
000000e0: 61e5 78be 34c3 60be f9c9 b73e 2925 823e
000000f0: 283c 76be 33cc 89be fa07 013e 5d23 e53d
00000100: 89e6 693e e70d af3e 90b3 fcbd 4897 6bbe
00000110: 95d2 bbbc ec6b 2e3c fa93 e83c db6c 303d
00000120: 71c2 0dbe e108 1cbe e8b9 98bd 181b c43d
00000130: c5c2 4abd c136 5bbd dd4d 923e c9b6 e8bd
00000140: 7d7f 15be 94cc 43bd 0557 2fbe acdf 0fbe
00000150: 5191 c03e 9473 a3bd 05e8 313c cef6 edbd
00000160: 07cc 7fbd 85e1 3e3f 4aba 0fbd f8e5 d03c
00000170: 3d0d ecbd a60c ff3a a0ab 713e 0a19 6cbd
00000180: 7529 75be 5eb1 bc3c 815e 24be a829 22bb
00000190: 2fab 6abd dfe9 b8bc 5267 36be b86b 533c
000001a0: b386 b83d da11 133f f2d2 293d 6725 b13e
000001b0: 0a6b 283d 1e9d 86be 2956 163e fb45 133e
000001c0: 139a 51be 2d09 a0be d095 143f 3ef4 4dbe
000001d0: a8e0 a43d feac a53c 4590 9cbd 55cf bcbd
000001e0: 269a 11bd 213b 55be a76d 0a3f aa2f df3e
000001f0: 2028 c7bc 9b71 95be ee6a 263d 990a 873d
00000200: fd33 12be 7663 83be b893 063e cff6 82be
00000210: d56d 053e 842f 223e 3884 533c 62bf 3d3d
00000220: 0111 1b3e 17c3 63bb 63b9 343d 0410 823e
00000230: ccf1 65be ab62 82bd 645c 97be b7e2 823d
00000240: f070 f6bd 7dbd 783e a0a2 a33e 5ae9 17be
00000250: 9ab6 08be a675 133d d644 1f3e 1ba6 66be
00000260: b9a9 3dbe ab04 39be e61c cbbc 3547 a53a
00000270: 2d67 cfbd 7ac9 263d 6e8b 35be 4b95 923e
00000280: ce51 9ebb e504 79bc 1caa 423c c011 80bc
00000290: b2c5 883b 2ea6 113d ab62 ce3c d954 86bc
000002a0: b7d4 c43b 22db 2e3c ccfd 5dbd f1b1 84bb
000002b0: 2c0e 653c ddfc 07bd 0a35 b8bc 841d fa3c
000002c0: 98e5 09bd 195a 7d3c 81e4 f83c 10fc d53a
000002d0: 0582 083b b1c0 863c 4233 2abb 14ae bc3c
000002e0: fe07 13bd fe8c 093d 69e0 313d 6d45 1b3d
000002f0: 8dc8 923c adc3 b2bc 2a68 0b3d 7b3f 513c
00000300: c19f dbbe 82db 21be eeab 89bc 3f3c c7be
00000310: 93f9 ba3e a513 c83c c5ea 243b bb8d 073e
00000320: 1e2c 7d3e f61c c13d 451d 35be c401 44be
00000330: 7c2c fa3d f18c 693e cbd4 a53e 92ba d6bd
00000340: 348f 8dbd f4fa 9e3e 27d8 303e 5fdb 023e
00000350: 4a99 e5bd 9073 893d 24a5 56be 7b8b bc3c
00000360: 64f0 f3bd 4f8c 85bd 424e fabd cedd 9dbe
00000370: d9c9 82be a992 013d b671 b43b ca41 26bd
00000380: 4391 bd3c 3e33 f53d 228f 0b3e b7a8 90be
00000390: a6b1 e0bd 62b6 49be 73e9 8d3d 90a1 e33d
000003a0: 8867 4cbe 80b6 843d 1325 003e a0a3 313e
000003b0: 92ec 0c3e 19d8 adbd a946 f83c 05be cebd
000003c0: 47cc 0e3e a6a2 063e 2285 4d3c 86e5 273e
000003d0: e7b4 823e 6dee 103e e345 c2bd 4328 333e
000003e0: b561 0d3e fdfe 3f3e 790d 30be c7d3 6fbe
000003f0: 7f02 cf3e 506c a73d c303 4fbe aaf7 103f
-0.08389012 0.022123802 0.3311512 -0.21781002 0.10811506 -0.09207171 0.20087565 0.1553044
0.22198245 -0.0371415 0.15510403 0.20302895 0.14192972 -0.06610732 0.6192291 -0.26150787
-0.036058854 0.20270932 -0.08210383 0.16287284 0.027873313 -0.005269475 0.26274544 -0.14298132
-0.23987386 0.30712876 -0.17606667 0.22146352 0.048988264 0.018303096 -0.08960708 0.17591201
0.121516 0.2138496 -0.121933155 0.046018455 -0.076962195 -0.0875997 0.035925608 -0.11549414
-0.02055927 0.21782817 0.14772585 0.14386088 -0.03856493 -0.05209657 -0.10716238 -0.24279158
-0.07052517 -0.49192315 0.3942609 -0.004294101 0.28147125 -0.028231652 -0.1048789 -0.13010512
-0.24306251 -0.21949464 0.3589628 0.25418976 -0.24046385 -0.26913604 0.12600699 0.11188386
0.22841848 0.34190294 -0.12338936 -0.23006928 -0.022927562 0.010645848 0.028390873 0.043072563
-0.13843705 -0.15237762 -0.07457334 0.0957548 -0.049502153 -0.053519014 0.2857503 -0.113629885
-0.14599414 -0.047802523 -0.17123039 -0.14050168 0.37610868 -0.07981029 0.01085854 -0.1161934
-0.062450435 0.74562865 -0.03508977 0.025500283 -0.115259625 0.0019458726 0.23600626 -0.057641067
-0.23941596 0.023033794 -0.16051675 -0.0024744067 -0.05729216 -0.022572456 -0.17812851 0.0129041
0.09010067 0.57449114 0.04146094 0.34598848 0.041117705 -0.26291746 0.14681305 0.14382164
-0.20468931 -0.31257 0.58041096 -0.20112702 0.08050662 0.02022409 -0.07644705 -0.09219233
-0.035547398 -0.20823337 0.54073566 0.43591052 -0.024311125 -0.29188237 0.04062932 0.06593818
-0.14277644 -0.2566182 0.13142288 -0.25578925 0.13030179 0.15838438 0.012909941 0.046325095
0.15143205 -0.0034753734 0.04412211 0.25402844 -0.2245552 -0.06366476 -0.29562676 0.06390899
-0.1203326 0.24291034 0.3196001 -0.1483511 -0.13350907 0.03600087 0.15553603 -0.22524302
-0.18521775 -0.18068187 -0.024794053 0.0012609722 -0.10127101 0.040719487 -0.1772897 0.28629526
-0.004831529 -0.015198921 0.011881378 -0.015633464 0.0041739577 0.035558872 0.025193533 -0.01639788
0.006006803 0.0106723625 -0.054197118 -0.0040495326 0.01398043 -0.033200134 -0.022486228 0.030531652
-0.033666223 0.0154633755 0.030382397 0.0016325731 0.002082945 0.016449304 -0.0025970493 0.023032226
-0.035896294 0.033581726 0.043426905 0.037908006 0.017917896 -0.021821821 0.034034885 0.012771483
-0.4289532 -0.15806392 -0.016805615 -0.38913152 0.36518535 0.02442343 0.0025164348 0.1323766
0.2472386 0.09429352 -0.17686947 -0.19141299 0.12215516 0.22807671 0.3238891 -0.10484804
-0.069120795 0.31050837 0.17269956 0.12778996 -0.11210878 0.06711495 -0.20961434 0.023015728
-0.11911085 -0.06520902 -0.12221958 -0.30833286 -0.25544623 0.031634007 0.0055067195 -0.040590085
0.023140555 0.11972664 0.1362882 -0.2825372 -0.10971384 -0.1969848 0.069292925 0.111148
-0.19961369 0.064801216 0.12514143 0.17347574 0.1376212 -0.08488483 0.03030713 -0.10094837
0.13945113 0.13147983 0.012543948 0.1639615 0.25528643 0.14153452 -0.09485986 0.17495827
0.13806804 0.18749614 -0.1719264 -0.2342063 0.40431592 0.08174956 -0.20216279 0.56627905

context_transformer_0/ffn_layer_2/intermediate_dense/einsum/Einsum;context_transformer_0/ffn_layer_2/intermediate_dense/Relu;context_transformer_0/ffn_layer_2/intermediate_dense/add f4 [32]
00000000: 6b2e adbd 05c4 cebd 5f65 06be eaf7 86bd
00000010: ff44 5cbc 26df 503d d2c5 313e e71b a3be
00000020: bd87 3dbd d808 8ebe b440 4a3e 0680 abbe
00000030: 8646 adbe e406 0cbe fcb8 97bd 60f9 bbbd
00000040: e1cf 46be 23b5 89be ba28 48be 2b3c f9bd
00000050: b38c 12be 4802 54bd f524 d4bc 4826 30be
00000060: 09a3 5ebe 2ebf 2dbc 4a19 e5bc c6ef 81be
00000070: 5ab1 4abe 0b7f 56be d61e dd3d 51d3 27be
-0.08456119 -0.100959815 -0.13124608 -0.065902546 -0.013444184 0.05099406 0.17360619 -0.31857225
-0.04627203 -0.27741122 0.19751245 -0.33496112 -0.33842868 -0.13674504 -0.0740833 -0.09178424
-0.19415237 -0.2689601 -0.19546786 -0.12169679 -0.14311485 -0.051759988 -0.025896529 -0.17202103
-0.2174188 -0.010604663 -0.02796616 -0.25378245 -0.19794217 -0.209469 0.10796897 -0.16389205

context_transformer_0/ffn_layer_1/norm/mul;context_transformer_0/ffn_layer_1/norm/add;context_transformer_0/ffn_layer_2/intermediate_dense/einsum/Einsum;context_transformer_0/ffn_layer_2/intermediate_dense/Relu;context_transformer_0/ffn_layer_2/intermediate_dense/add f4 [32, 32]
00000000: e235 263d 2190 12be a804 7ebe cd74 193e
00000010: 6b24 86be f1b8 b03d dcdf 02bd 69dc 9bbd
00000020: 72ff 973e 7377 55bd bbba bfbd 9a09 c7be
00000030: f798 ebbc 52d6 4ebb ebc8 44be 5eba da3c
00000040: 4ae0 4dbd efdc 0b3e 40fc b9bd b477 a83d
00000050: d39f 8b3e 0c05 59be 49b4 e33d c228 bebd
00000060: d1f0 8b3d 8890 10be d27d c9bb 9a77 a73d
00000070: f2f5 6cbd 0e4c 45bd 1ee2 f03d 0598 61bd
00000080: f128 f6bd 437a 7e3c b89b feba c7f0 4b3c
00000090: 9ed0 33be a6f8 59bc e907 ba3d 105d c8be
000000a0: d3d5 52be f3b5 a2bd fd66 923d b588 5fbe
000000b0: b017 22be 1193 c73d 7538 dfbd d94e bdbb
000000c0: 774f 4f3d ad5f 9abc 3e8d 893c e6f4 83bd
000000d0: 37c1 303e 866a b83e 9349 16be ed6e a2bc
000000e0: 1957 edbc 1aeb a13e c83a 6d3e 1805 bcbe
000000f0: 5102 2dbe 03e5 a93d 7246 6e3d a8de bf3d
00000100: f410 3a3c c111 c9bd 162a 81be 3b74 a6bc
00000110: 5b66 083e 8c19 cf3d 2a10 ed3e 25ca 81be
00000120: 6a8b f73d 728a 3abe 65f1 653d b8cc 4fbe
00000130: 0f2d 72bc 2250 dbbe b604 893e d3a7 13bc
00000140: a0c6 0f3e a441 633e 9aee 8f3c 0ee9 f73d
00000150: 0a15 c7bd c718 21bd 8c78 2c3d e6f8 00be
00000160: b0b2 263d 623b 4dbe 9886 1a3e d020 aabd
00000170: 6994 d1bc 898e b4be 96ed adbb 911f 413e
00000180: b793 d63a 2862 1cbe c005 37be d1a6 2dbe
00000190: c5fe 893e ea87 babd ddd3 a0be ebaf 04be
000001a0: e261 47bd e3d4 e03d e007 05be 10c7 913e
000001b0: bbee 233e 087c bdbe 71d8 0fbe 492d b4bd
000001c0: b212 63bd 9b82 0cbc 4b69 9fbd b56a 603e
000001d0: c8d9 2a3d bf6e 293d 0aa7 d73e 1d4d 4f3e
000001e0: a42e 89bd 4121 523e dc42 4e3e 7efb fb3c
000001f0: bd4a 4b3d 95f8 83be 6135 883d 6b8f 423e
00000200: e2ad 14ba 1cf6 fbbc b55b b6bc 29c2 29be
00000210: 2d1a aabd 49df 8dbd 4acb 04be 0e1c a0bd
00000220: 6828 0a3f b843 9cbd 7567 4e3d 4dd4 643e
00000230: b353 1e3b 9c5f 1bbd a9ba a83d 7381 efbd
00000240: cdc2 4abe e301 42be a84d 083e 0d15 62bd
00000250: 7708 6d3e 38ac 6c3d 3c60 b4bd 2136 8e3c
00000260: 800e 1cbd 40c0 f2bd 9f9f dd3d d1e5 dcbd
00000270: f3e0 01be 84c8 443d 7b93 903e 1ffd dc3e
00000280: 57ea 4ebe 37d2 25be 2b36 08be 0137 5cbe
00000290: 3a2f abbe e424 15be ecdd acbd d247 a13b
000002a0: 32eb af3e 8237 ab3d 876c 953d 0493 de3e
000002b0: facd 11bd 3df8 22bc 8025 85be 333a 133e
000002c0: 2c1d 94bd 6447 0f3e 6a74 c03d 928d fa3b
000002d0: 7d72 a73e 4b35 78be 5704 cdbd 931c 0cbe
000002e0: 2a1e c83c 6f8a 47be 9e5a c93d 68bf a73e
000002f0: 2c5f 39bb feb4 033d 5223 803d 5ce2 24be
00000300: 55e1 32be beff 423d 2bf6 2dbe 4ced 6bbe
00000310: f794 3cbc c785 bd3d 568d 253e bc2b 53bd
00000320: c306 56bc cb84 773e 3979 4b3e 1e49 c13d
00000330: 488f 053d f451 afbd 7bb0 3bbd 0ff6 09bd
00000340: 5269 fcbd 2890 2ebe c763 03bd c91c d43d
00000350: dda6 ee3d 9631 6ebd bc85 e23e 8a40 53bd
00000360: a153 80be fd44 9cbc 9d76 173e d208 dd3d
00000370: eb35 90bd 5f74 ddbc be2c 5b3c 8d5d c53d
00000380: c3d4 5cbd 7784 48be 3ff2 4d3d 8c84 6fbe
00000390: 7956 a3be 681e e33e 052e 5e3e 02e6 9bbd
000003a0: da69 f7bd b0c6 98bd a916 97bd 9a4e 71bb
000003b0: d282 39be e237 d63d 3feb a83e b5df e0bd
000003c0: 2884 0dbb 3f7c 023d 8e9b c13b d878 013d
000003d0: ea2c 653e 960e 95bd 0733 5fbe bfa8 5c3e
000003e0: 531e eebd 5cf5 77bc 1884 63be 84b5 3f3d
000003f0: 3cee 12be 1334 31bc 5f2d 54be 9697 513e
0.04057873 -0.14312793 -0.24806464 0.14985962 -0.2619966 0.08629025 -0.03195177 -0.07610399
0.29687077 -0.05211587 -0.09361788 -0.38874513 -0.028759463 -0.003156085 -0.19217269 0.026700195
-0.050262727 0.13658498 -0.09081316 0.082259566 0.27270374 -0.21193331 0.11118371 -0.09285118
0.068330415 -0.14117634 -0.006149032 0.08177109 -0.05785174 -0.048168235 0.117618784 -0.055076618
-0.12019528 0.015532079 -0.001942507 0.0124475425 -0.1756005 -0.013303911 0.0908354 -0.391335
-0.2058938 -0.0794486 0.0714855 -0.21829493 -0.15829349 0.097448476 -0.1089944 -0.0057772216
0.050612893 -0.01884445 0.016790982 -0.06443195 0.17261206 0.3601877 -0.14676504 -0.019828284
-0.028972195 0.3162468 0.23166955 -0.36722636 -0.16895415 0.08295634 0.05817265 0.0936864
0.011356581 -0.098178394 -0.25227422 -0.020319095 0.13320296 0.101122946 0.46301395 -0.25349537
0.12087138 -0.18216875 0.056138415 -0.20292938 -0.014781251 -0.42834574 0.26761407 -0.00901218
0.14040613 0.22193009 0.017569829 0.121049985 -0.0972081 -0.03933027 0.04210715 -0.12594947
0.040697753 -0.20042184 0.15090406 -0.0830704 -0.025583463 -0.35264996 -0.0053078635 0.18859698
0.0016370927 -0.15271819 -0.17873287 -0.16958167 0.26952186 -0.09107955 -0.3141164 -0.12957732
-0.048677333 0.10978105 -0.12991285 0.28472185 0.16009037 -0.3700869 -0.1404741 -0.087977
-0.05543775 -0.008576061 -0.07783755 0.21915706 0.0417116 0.04136538 0.42119628 0.2024426
-0.06698349 0.20520498 0.20142692 0.03075957 0.049631823 -0.2577559 0.06650806 0.19000022
-0.00056716625 -0.030757003 -0.022260526 -0.16577972 -0.08305774 -0.06927354 -0.12968174 -0.07817851
0.53967905 -0.07630104 0.050391633 0.22346611 0.0024158775 -0.037932977 0.082387276 -0.11694612
-0.19800873 -0.18946032 0.13310874 -0.055195857 0.2314776 0.057781428 -0.08807418 0.017359795
-0.038099766 -0.11853075 0.10821461 -0.107860215 -0.12683468 0.04804279 0.2823752 0.43161866
-0.20206581 -0.16193472 -0.13301913 -0.21505357 -0.33434469 -0.14564854 -0.08440766 0.0049218917
0.34359127 0.08360197 0.072960906 0.4347154 -0.035596825 -0.00994688 -0.26005173 0.1437767
-0.072321266 0.13992077 0.09397204 0.007646271 0.32704535 -0.2423908 -0.100105934 -0.13682775
0.024428446 -0.19486402 0.09831737 0.3276322 -0.0028285487 0.03215503 0.06256737 -0.16101974
-0.1746877 0.047607176 -0.16988437 -0.2303974 -0.011510125 0.09254032 0.16167197 -0.05155538
-0.013063136 0.2417175 0.19870462 0.09437774 0.032607347 -0.08560553 -0.0458226 -0.033681925
-0.12324776 -0.17047179 -0.032077577 0.10357053 0.116529204 -0.058152758 0.44242656 -0.05157522
-0.25063804 -0.019075865 0.14791341 0.10792698 -0.07041534 -0.02703303 0.013377367 0.09636984
-0.053913843 -0.19581781 0.050279852 -0.23390406 -0.3190191 0.44359136 0.21697243 -0.0761223
-0.120807365 -0.07459772 -0.07377369 -0.0036820532 -0.1811631 0.104598776 0.3299198 -0.10980169
-0.0021593664 0.03185677 0.005908436 0.031609386 0.22380415 -0.07278173 -0.21796809 0.21548747
-0.11626878 -0.015134182 -0.22218359 0.046803966 -0.14348692 -0.010815638 -0.20720433 0.20467982

context_transformer_0/ffn_layer_3/intermediate_dense/einsum/Einsum;context_transformer_0/ffn_layer_3/intermediate_dense/Relu;context_transformer_0/ffn_layer_3/intermediate_dense/add f4 [32]
00000000: bde0 97bd ef81 2f3d 5221 aebd 171e 4bbe
00000010: d572 c5bc f251 d0be b0f2 6bbd d77e 09bd
00000020: 7f23 3ebe 925c 50bd 405f 02be dd80 83bd
00000030: 688f b1bd 7548 40be 80ee 1c3c d2ba 2c3d
00000040: 3943 acbd 8486 82be 246b 18bd c321 2cbe
00000050: bcec 4dbe 0ae6 9ebe 70c0 b1bd 8de6 b1be
00000060: c196 85bd 968a bfbb e443 b1bd 8538 76bd
00000070: 70fa 49bc 448b 933d 910c ccbd 3bb1 87be
-0.07415912 0.042848524 -0.08502449 -0.19835697 -0.024102608 -0.4068752 -0.05760449 -0.03356823
-0.18568228 -0.050869532 -0.12731647 -0.06421063 -0.08669931 -0.1877764 0.009578347 0.042170353
-0.08411259 -0.25493252 -0.037211552 -0.16809754 -0.20109838 -0.3103488 -0.08679283 -0.3474621
-0.06522895 -0.005845378 -0.08655527 -0.060112495 -0.012327775 0.07204297 -0.09963334 -0.26502404
